src-tauri/assets/model.onnx (onnx, 9740 bytes, 10 tensors)

model_10/time_distributed_1/dense_10/MatMul/ReadVariableOp:0 f4 [6, 5]
00000000: a4ed aebd 1289 823f 93bd adbf 1bac 39bf
00000010: b5f9 dcbe b9ce b23d e4fb ddbf 165e 563e
00000020: 5167 ab3d 50e1 213f 50db 65bf c7d5 36bf
00000030: 2c6b 84bf 0416 743f d761 313f daf6 2e3f
00000040: 1bd8 96bf 4005 38c0 aea1 3dbf 1185 243d
00000050: 7aa4 fdbf 64ff 473d bc11 383f 94b1 01c0
00000060: 99fb e53e e7e6 1f3e fc42 44be 8413 a3bf
00000070: 7f40 dfbf 8bbd a63e
-0.0854142 1.019808 -1.3573478 -0.7252824 -0.4315926 0.087308355 -1.7342496 0.20934328
0.083693154 0.63234425 -0.8978777 -0.7141995 -1.0345206 0.95346093 0.69289917 0.68345416
-1.17847 -2.8753204 -0.7407483 0.040165965 -1.9815819 0.048827544 0.7190206 -2.0264635
0.44918516 0.15615426 -0.19166178 -1.2740331 -1.7441558 0.32566485

model_10/time_distributed_1/dense_10/BiasAdd/ReadVariableOp:0 f4 [5]
00000000: d6dd 71bf 6331 a7bf cff7 7f3f e446 17be
00000010: c27e 393f
-0.9447912 -1.3061947 0.999875 -0.14773136 0.7245904

model_10/conv1d_21/Conv1D/ExpandDims_1:0 f4 [6, 12, 1, 3]
00000000: 16cc 09bf 46e4 46bf e7e5 0abf 1f80 13bd
00000010: 7991 c93d 0ff3 b23d 8abc d03e 07d4 733e
00000020: 434c 333e aaab 2bbf c5fb 32bf d1d2 f1be
00000030: ec98 70be e4d6 96ba 9a57 8c3e 9397 cbbe
00000040: 27e8 10bf 8d11 1cbf 8da3 a63e cace 903e
00000050: 3066 163e 31e4 e33e 5956 d93e e490 613e
00000060: 66a5 7e3e 1f1b f03e 1484 b83e a01a 453e
00000070: b0eb 653e cb63 4e3e ff89 053e 8e67 8cba
00000080: 51a9 debd 090a 0bbf d4b1 28bf 8001 a5be
00000090: a3fc 9abe 8d2f 2fbe a9b8 133e 5eb3 60bd
000000a0: 5042 0cbe eabe 8dbe 0354 343e 91f8 1f3f
000000b0: eed9 173f 0cca 4e3e c3b3 82be f44c 85bd
000000c0: 5a81 10be 91e1 20be 8d1d 5bbe cceb dc3e
000000d0: 4ed4 1a3e 0cd5 983e 8632 723e 97ce 36bd
000000e0: 5930 b93d 1a1d 49bd 083d 8cbe 8eb4 d4be
000000f0: 9875 0abf 5475 0bbf d724 16bf 438a 98bc
00000100: b587 03bf 12b3 4ebf 88df b13d 651b 85be
00000110: ed31 8ebe 4ae3 d63e 84db c63e 97d3 673d
00000120: c370 e43e 41cd db3e 59dd b13e 32d8 86be
00000130: 94c2 a6be 82c2 91be 9cb6 9cbd b7c7 78be
00000140: 921c 51be 3b86 653e 2088 e03e e579 a83e
00000150: 4f66 d63d 2fad 863e 9973 d63e a6e7 5cbd
00000160: 79ea 40bd 048f c9bc 07b2 abbe bfd1 4abe
00000170: 1a3b 4fbe 0c2a 00bf a810 08bf 5e3a e1be
00000180: 89e6 b6be a5ce 21be 22df 41be 2fd3 a4be
00000190: 619e 75be 9292 2bbe d74a 2fbf fcc1 3cbf
000001a0: 69f7 26bf 04f5 e13e e326 fb3e 8628 163f
000001b0: 70c7 ccbe 904c 08bf afbb d4be 016d 24bf
000001c0: f88f a5be 0487 edbd ade7 ba3e 42f4 d23e
000001d0: 582f 7e3e 0d93 023e f874 3f3e 249e 223e
000001e0: 24cb 393e e535 8c3e af67 673e a341 06bf
000001f0: e6d8 4bbf 74a8 3bbf 9c63 f43e f1e4 b63e
00000200: cb19 633e df92 fa3e daa5 c53e 5ed1 0c3e
00000210: 8f39 83be c4eb 7abe d29d e3bd ab87 37bf
00000220: 48db 29bf 42f8 a8be 31bf 7b3e b90c 123e
00000230: 8919 2e3d 1de6 f0bc b234 f0bd 00c8 d53d
00000240: 5089 7dbd c965 1cbc 1631 92bd 41fb 0f3f
00000250: b20c 143f 89f5 133f b608 eb3e 9cc6 da3e
00000260: 92cc 853e b136 14bf e9e4 e2be d200 a2be
00000270: 3a62 12bf 6e5e 15bf 24a1 01bf 26b4 f03e
00000280: b59e f63e cdd8 ed3e 82d6 dcbe 30ea 14bf
00000290: 2ca6 1dbf 3a5c 92be dc9d 87be 2641 a1be
000002a0: 47d5 6c3d 4924 53bc 81b8 cbbc e919 97bd
000002b0: 4efa b23c a9b3 193d 3f4f 29be 5bb3 3bbd
000002c0: 2f83 27be 0113 0fbe 88c9 9bbe 98a6 67be
000002d0: ed18 24bf f859 4bbf 25e3 2ebf 67dc 0d3e
000002e0: 2948 4b3d d66c 0f3e 0217 71be f15a 24bf
000002f0: 67bc acbe 1a18 86be 84ee 7dbe a7f1 d1be
00000300: 7873 c8be 9e45 0bbf f5a6 8bbe 9e6d 9bbe
00000310: 00b5 873c c46d 71bd ef34 2b3f 7f31 e53e
00000320: 7e21 9a3e c60d 253e f3d8 1f3e e1b9 f43e
00000330: 266b f73e 7845 123f 5720 fb3e 5f7c 5a3e
00000340: 166c d53e 6026 213f 1e92 fabd cba6 8fbe
00000350: 2baf 0bbe 40f0 48be aeb8 87bd 8437 1c3d
-0.53827035 -0.7769207 -0.54257053 -0.036010858 0.098422 0.08737766 0.40768844 0.23811351
0.1750956 -0.67058814 -0.6991542 -0.47231153 -0.23495835 -0.0011508134 0.27410585 -0.3976408
-0.56604236 -0.6096428 0.32546654 0.28282768 0.14687419 0.44510034 0.4244869 0.22027928
0.24867782 0.46895692 0.36038268 0.19248438 0.22453189 0.20155255 0.13040923 -0.0010712014
-0.10872138 -0.5431219 -0.65896344 -0.32227707 -0.30270872 -0.17107983 0.14425911 -0.054858558
-0.13697171 -0.27684718 0.17610173 0.6248866 0.5931691 0.20194262 -0.25527772 -0.06508818
-0.14111844 -0.15711047 -0.21397991 0.4314865 0.1512005 0.29850042 0.23652086 -0.044630613
0.09042425 -0.04910002 -0.27390313 -0.41544002 -0.54085684 -0.54475904 -0.58649963 -0.018620616
-0.5137895 -0.8074199 0.08685213 -0.25997463 -0.27772465 0.41970283 0.38839352 0.056598272
0.4461728 0.42930034 0.34739187 -0.2633682 -0.32570326 -0.2846871 -0.076520175 -0.24294935
-0.20421055 0.22414486 0.43853855 0.32905498 0.104687326 0.26304004 0.4188507 -0.053931855
-0.04709861 -0.024604328 -0.33534262 -0.19806574 -0.20237389 -0.5006416 -0.53150415 -0.43989843
-0.3572276 -0.15801485 -0.18932775 -0.3219237 -0.23986198 -0.16755131 -0.6847357 -0.73733497
-0.6522127 0.44132245 0.49053106 0.58655584 -0.3999591 -0.53241825 -0.4154944 -0.64228827
-0.32336402 -0.11598018 0.3650488 0.4120198 0.24822748 0.12751408 0.18696964 0.15880638
0.18143898 0.27384868 0.22598146 -0.52443904 -0.79627836 -0.73303914 0.47732246 0.35721543
0.22177808 0.4894018 0.38603097 0.13751742 -0.2562985 -0.24504 -0.11114086 -0.7169139
-0.6635022 -0.33001906 0.24584652 0.14262666 0.04250482 -0.029406602 -0.11728801 0.104385376
-0.06189853 -0.009545752 -0.07138269 0.5624276 0.5783187 0.5779653 0.45905083 0.42729652
0.26132637 -0.5789595 -0.4431527 -0.3164125 -0.5718113 -0.58347213 -0.50636506 0.47012442
0.4816796 0.46454468 -0.43132406 -0.5816984 -0.61581683 -0.28585988 -0.26487625 -0.31495017
0.057820585 -0.012887069 -0.024868252 -0.07377989 0.02184787 0.037524853 -0.16534136 -0.045825344
-0.16358636 -0.13972093 -0.30427194 -0.22622144 -0.64100534 -0.79434156 -0.68315345 0.13853608
0.049629364 0.14006361 -0.23543933 -0.64201266 -0.3373749 -0.26190263 -0.24798018 -0.4100468
-0.39150596 -0.544031 -0.27275816 -0.3035707 0.0165658 -0.05894257 0.66877645 0.44764325
0.30103678 0.16118535 0.15610103 0.47798064 0.48323935 0.5713725 0.4904811 0.21336506
0.41684026 0.6294918 -0.12234901 -0.2805694 -0.1364104 -0.19622898 -0.06627022 0.03813888

model_10/conv1d_20/Conv1D/ExpandDims_1:0 f4 [12, 24, 1, 3]
00000000: 21f4 83bc 711b 8f3e 6093 4abe 5b60 2a3e
00000010: 5f5e b63e d6b5 ecbe 168d 34bb 86a0 003e
00000020: 38ab 8d3c cb00 023e aba8 18be 7d44 413d
00000030: 4f80 39bd f9a0 903d ef52 a63d d9cb e93b
00000040: 9461 a63d 3569 b7bd ebea 483d 2557 50bd
00000050: 7085 833e 2f03 883e 16c0 063e e1df 1dbf
00000060: 80e3 bdbd 07d8 3b3c 530d 943e c72f ddbc
00000070: 3db6 543e 056a c13a 5fea 17be 496e 4e3e
00000080: 7b0a d23d 079e 04be a36e 5d3e e4da 85bd
00000090: 0960 093f d3a9 03bf 5a08 0f3d cbff 743f
000000a0: da86 c63f aeb3 d5bd a104 02bf 5f4e f9bd
000000b0: a892 2cbe d52b b8bb 0c3b 2e3f 7029 1fbe
000000c0: 5839 223d ec89 193e ee6d 94bc 0187 3e3e
000000d0: ffdb 353e fc58 253e fdea 55be 073d 46be
000000e0: 2f53 86be cbd7 ecbd 3bc8 e43f 785f 92bd
000000f0: 3be0 8abe 3a26 223f e95e 76be 0929 38bf
00000100: 4923 ddbe a403 853e e88e 233e 05c7 11be
00000110: e57b 243c 4e56 8ebe f06a 0abe cf6c e9bd
00000120: b0d1 5ebc 9b54 4e3d c882 07be 9ef0 743e
00000130: ba77 4cbe 45f9 afbd ba96 20bd dd84 bf3b
00000140: 86ad 383e 974d 0e3c c37f 82bd e614 023d
00000150: 1c5f ddbd d323 f23d 646f 63bd 59f5 83bd
00000160: 4220 df3d 5e7a 073d 803b aebe c747 c33e
00000170: 90df b63d e9fd 543f 52e2 b6bf 78d1 923e
00000180: 82b6 573d 32e5 2b3f e0c7 ffbe e8fc 893d
00000190: 0d45 44be 2b89 553e 29e6 99bd 863c 993e
000001a0: 6e20 efbd bc58 a0bd db15 193e 6d2d 0ebc
000001b0: 55d7 80bd 42c3 f43e c83d 0e3c c6b6 e1bf
000001c0: 0e71 72bf 4971 f0be 9ce6 dc3e 07ce 873b
000001d0: e29c b63e 7751 0fbf 7209 bc3e 44b1 b93d
000001e0: 0c1e 27be 76b6 43be d522 29bc c7f4 993e
000001f0: 613c f8bc 2317 84be bf64 91bd 2c77 653e
00000200: e9c5 17be 73dc 163e a7ac 393e f288 ebbd
00000210: 4e10 96bd e6be ad3d 4790 8fbe 2f5a 60bd
00000220: 2ca2 493e 0675 1dbe 673a b4bd c278 5e3e
00000230: 78c1 cfbd def4 743e 435e 6c3e ab8c cabe
00000240: 793a 153e 032f 6b3e 1a93 72be db98 2f3f
00000250: d798 bcbe 02c3 fc3d f1e7 1bbf 7a71 383f
00000260: 969c 153d 903d d73d cf21 933d 8d09 1ebd
00000270: 8c26 57be 94ed 093e feca f63d 239e 5fbb
00000280: b7a4 91bd ee14 843d 21a3 09be 2179 753e
00000290: 0158 a23e fad7 52be 2eca fc3e fd82 e0be
000002a0: c5a3 48be 2d6c b93e 24b8 a8be 7d0e 773e
000002b0: 847a 8fbe 8b74 593e bcff 1dbe 0914 b83d
000002c0: f40a a63d 9dc3 3c3c 4737 f2bd 4902 853d
000002d0: f67f 7a3d 2f03 2abf a196 b23e 203c 8a3e
000002e0: 00de a83f b082 0c3f 5169 0a3e 6911 82bf
000002f0: ae1a 2b3d 8c76 dcbe ae05 813f 1f84 b0be
00000300: 8f85 a4be 8136 8a3c f7f0 123e 33ef 723d
00000310: 7995 0abe 1477 2c3e 451a 8cbe 312a 1fbd
00000320: 4712 a03d e0e7 fabe 29da 66bb 7a3b ff3e
00000330: 6d80 713e d378 09be 5d2a 37be c9f8 0f3e
00000340: 0a42 76be 2a98 053e b4e0 51be 427b b63d
00000350: ad90 c93e a503 713e 31f5 c23d 7f8e ed3d
00000360: 8732 f83e 8e30 1abe cdfa 75be 802c 453f
00000370: 0d63 44bf 4e21 e73e 4031 35bf e99c e33e
00000380: 1c9f 3d3e 2d9e 8bbd 68ac 8c3e 5c97 b1bd
00000390: 194f 5ebd 473c cf3d db14 113d 1dbf fe3c
000003a0: 6b80 2cbd a4ad cd3d 25aa 103c 85a8 d0ba
000003b0: 880a 293e c7cf e73d e047 283e de8e 0fbe
000003c0: 5b84 dbbc a951 5f3e 1ccf b1be 5b51 b43d
000003d0: c546 1bbe 7fbd 143e 173e c43d 6f4a 81bc
000003e0: d846 1e3d 122f 89bd c435 8c3d e8e7 1abc
000003f0: 3d70 b33d 6948 9c3d 3600 903d bba1 1abf
-0.01610762 0.27950624 -0.19782782 0.16638319 0.35618874 -0.4623248 -0.0027549914 0.12561235
0.017293558 0.12695615 -0.14908092 0.047184456 -0.04528838 0.07061953 0.08121287 0.0071348962
0.0812408 -0.089556135 0.04905216 -0.050864358 0.25687742 0.2656493 0.13159212 -0.6166974
-0.09271908 0.011465079 0.28916416 -0.027000321 0.20772643 0.0014756328 -0.14835499 0.20159258
0.10255905 -0.12950908 0.21624236 -0.06535891 0.53662163 -0.51431006 0.034920074 0.9570281
1.5509903 -0.10434662 -0.50788313 -0.12173151 -0.1685282 -0.0056204596 0.6805885 -0.15543151
0.03960547 0.1499402 -0.018118825 0.18606187 0.17759703 0.16147226 -0.20890422 -0.19359218
-0.2623534 -0.11564597 1.7873605 -0.071471155 -0.271242 0.6333958 -0.24059643 -0.71937615
-0.43190983 0.2597934 0.15972483 -0.14236076 0.010039304 -0.2780022 -0.13517356 -0.11397707
-0.013599798 0.050373655 -0.13233483 0.23919913 -0.19967547 -0.08592466 -0.039206244 0.005844696
0.18034944 0.008685491 -0.06372025 0.03175821 -0.10809156 0.11823239 -0.055526152 -0.06443281
0.108948246 0.033075683 -0.3402977 0.381407 0.0892936 0.83199936 -1.4287817 0.28675437
0.052664287 0.671466 -0.4995718 0.06737691 -0.19166966 0.20853107 -0.07514603 0.29928988
-0.11676107 -0.07829425 0.14949743 -0.008677823 -0.06291071 0.4780522 0.008681722 -1.7633903
-0.9470376 -0.4696143 0.4314469 0.0041444334 0.35666567 -0.5598368 0.36725956 0.09067014
-0.16320056 -0.19112572 -0.010323246 0.30069563 -0.030302228 -0.25798902 -0.07099294 0.22408742
-0.1482159 0.14732532 0.18132268 -0.115007296 -0.073273286 0.084836766 -0.28039762 -0.054773506
0.1969077 -0.15376672 -0.08800202 0.21725753 -0.10144323 0.23921534 0.23082833 -0.39560446
0.14573087 0.22967152 -0.23688927 0.68592614 -0.36835358 0.12341882 -0.6090079 0.7204815
0.036526285 0.10509789 0.07184183 -0.038583327 -0.21010798 0.13469535 0.120504364 -0.0034121356
-0.07111495 0.064493045 -0.13441135 0.23971988 0.31707767 -0.20590201 0.49373 -0.43849936
-0.19593723 0.36215344 -0.32952988 0.2412662 -0.2802316 0.21235864 -0.15429586 0.089881964
0.08107558 0.011521247 -0.118269496 0.064945765 0.06115719 -0.6641111 0.34880546 0.26998997
1.3192749 0.54886913 0.13516738 -1.0161563 0.04177349 -0.43059194 1.0079858 -0.344758
-0.32133147 0.016871693 0.14349733 0.05931015 -0.13533582 0.168423 -0.27363792 -0.038858596
0.07815986 -0.49005032 -0.0035225248 0.49850065 0.23584147 -0.13424997 -0.17887254 0.14059748
-0.2404863 0.13046327 -0.20495874 0.08910228 0.3936819 0.23536547 0.09519423 0.115994446
0.4847605 -0.15057585 -0.24021454 0.77021027 -0.7671364 0.45142597 -0.70778275 0.4445565
0.18517727 -0.06817279 0.27475286 -0.08671448 -0.054274652 0.10118919 0.03542028 0.03109699
-0.042114656 0.10042885 0.008829628 -0.0015919363 0.16507924 0.11318927 0.16433668 -0.14019343
-0.02679651 0.21808495 -0.34728324 0.0880458 -0.15163715 0.14525412 0.09582155 -0.015782563
0.03864178 -0.06698431 0.068461925 -0.009454705 0.08761642 0.07630999 0.0703129 -0.6040303

model_10/batch_normalization_23/batchnorm/mul:0 f4 [1, 6, 1]
00000000: a934 353f 9052 7d3f 9861 8b3f f919 593f
00000010: 00bf 933f a358 193f
0.7078348 0.98954105 1.0889158 0.84805256 1.1542664 0.59900874

model_10/batch_normalization_22/batchnorm/mul:0 f4 [1, 12, 1]
00000000: 06a3 ae3e 91f5 993e a739 903e 5a92 a73e
00000010: cc64 bb3e dcf7 5f3e 65d1 8f3e 896b 9e3e
00000020: 2aa9 b43e c832 cf3e 8526 bc3e 7338 8b3e
0.34108752 0.30070165 0.28168985 0.32728845 0.3660034 0.21871895 0.28089443 0.30941418
0.35285312 0.4046843 0.36748138 0.27191505

const_fold_opt__99 f4 [1, 6, 1]
00000000: 3ac9 9f3f 00fc 9cbb fca6 f23f f0fb e03e
00000010: 527b ef3e e6ca ec3f
1.2483284 -0.004790783 1.895721 0.43942213 0.46773773 1.849942

const_fold_opt__97 f4 [1, 6, 1]
00000000: 2226 5ab9 0a4a 5ebb 8cab 8dbb ff22 a03b
00000010: 497c 243b 0817 033c
-0.00020804306 -0.0033918642 -0.0043234285 0.0048869844 0.0025098494 0.008001097

const_fold_opt__95 f4 [1, 12, 1]
00000000: 088c cbba 6cd1 d2b9 06ef 4fba 0047 be3a
00000010: 19f7 7cba 05eb 3238 98a3 d2ba 6142 1eba
00000020: 0df6 35bb 563a 15b9 c20c 333b f181 383b
-0.0015529403 -0.00040210353 -0.00079320406 0.0014517009 -0.00096498575 4.2657386e-05 -0.0016070483 -0.0006037113
-0.0027765066 -0.00014231479 0.0027320837 0.0028153623

const_fold_opt__100 f4 [1, 12, 1]
00000000: f67d 3abf 0e14 a83d b6d8 a13f 3c9d a23d
00000010: e60b 17bf 6ef6 ccbe bb8b 85bf a4dd 1e3f
00000020: aa0f 42be 1255 5cbd 4f58 bebd 96d5 293f
-0.7284845 0.0820695 1.264426 0.07940146 -0.5900253 -0.4003176 -1.0433267 0.62056947
-0.18951288 -0.053792067 -0.09294187 0.6634153
